复刻代码/6、CGAN/weight/discriminator.pth (torch, 894282 bytes, 8 tensors)

label_emb.weight f4 [10, 784]
000000 9c fa 96 bb 8a 8a 72 bf 98 15 42 bf d8 3b 78 be
       -0.0046075117 -0.94742644 -0.758142 -0.24241579
000010 b2 e6 8b 3f ea 84 3b be 8f 4e ab 3d 97 67 30 3b
       1.0929778 -0.18312421 0.08364593 0.0026917213
000020 0e 2a a8 3f f9 a4 37 3e 04 dc 70 3f 5a f4 2b bf
       1.3137834 0.17934026 0.9408572 -0.67169726
000030 70 09 f3 be 21 2b ee 3e 01 2e 7a 3f d2 54 6c bf
       -0.47468138 0.4651728 0.97726446 -0.92316926
000040 4d 99 e3 3e 70 4b 5b bd 62 48 0b bf d1 36 0e 3f
       0.44452897 -0.05353874 -0.5440732 0.55552393
000050 11 7e 8b bd a1 73 2f bf f8 a0 bd bf e7 37 93 bd
       -0.06811155 -0.6853581 -1.4814749 -0.07188397
000060 bf 08 b5 3e bc 4a 5e 3d 6c cc 0f bf f8 eb c7 bf
       0.35358235 0.05427049 -0.561713 -1.5618887
000070 a9 68 aa 3e 67 b1 a3 3d 01 ab ad bf d5 c5 5a 3f
       0.33282974 0.07992821 -1.3567811 0.8545812
000080 84 cf 85 be 97 a1 0a be 0c 4e 97 3d 8c ef 3e bf
       -0.26134884 -0.13538204 0.07387933 -0.7458427
000090 27 8f 4d be eb 49 26 3f bd fe 02 be 94 c1 18 3f
       -0.2007414 0.6495654 -0.12792487 0.59670377
0000a0 8c 74 80 be 9a fd 90 bf da 95 c4 3e b3 93 b7 3d
       -0.25088918 -1.1327393 0.38395578 0.08963718
0000b0 bd 3d 93 3c a9 e4 bb 3e 68 ba 79 3f a6 bb ac 3e
       0.017973775 0.3669789 0.9755006 0.33736914
0000c0 eb 38 07 bf 59 d9 5c bf 63 3f 90 3e d5 b9 96 be
       -0.52821225 -0.86269146 0.2817336 -0.29438654
0000d0 2e 04 aa 3f 93 a9 8a 3f 34 3b 6f bc c8 0b 76 be
       1.3282526 1.0833 -0.0146015175 -0.24027932
0000e0 86 2d 89 3f 82 c9 07 3f 84 6c a9 bf 02 a7 2e 3f
       1.0717018 0.5304185 -1.3236241 0.68223584
0000f0 52 91 b7 3e b0 a9 6c 3e 09 0f 99 be 62 48 d1 bf
       0.35853058 0.23111606 -0.29894283 -1.6350214
000100 be 8d 08 bf 13 96 83 bf 6d 67 03 be c0 87 f4 3e
       -0.5334128 -1.0280174 -0.12832423 0.4775982
000110 84 44 e3 3e b1 39 21 bd e6 97 75 be f7 48 23 bf
       0.4438821 -0.03936166 -0.23983726 -0.6378321
000120 c2 b9 37 3f e6 22 0c bf f7 bd 5c bf a7 11 de 3e
       0.7176782 -0.5474075 -0.86227363 0.43372843
000130 17 84 07 bf 7d 2e 4e 3f b7 d7 19 be 83 39 33 3d
       -0.5293593 0.80539685 -0.15023695 0.04375602
000140 98 73 8c 3e e2 ab a1 3e fe b4 0d 3f cf 69 51 3e
       0.2743194 0.3157645 0.553543 0.20450519
000150 07 dd 0b 3e da 45 af bf 61 8e 48 be 07 1d 96 3f
       0.13658534 -1.3693192 -0.19585563 1.1727608
000160 54 c5 57 3e 07 72 d2 be 0f 4f b3 be 09 0e 33 3e
       0.21071368 -0.4110262 -0.35021254 0.17485823
000170 ea 03 70 3f 1a da 2b 3f d1 03 dc bc 83 c3 2a bf
       0.9375597 0.6712967 -0.026857289 -0.6670458
000180 ef a2 29 3f 3e 2a c6 bf d6 6e 77 bf 8e 80 af 3f
       0.6626424 -1.5481641 -0.966535 1.3711107
000190 52 59 a0 3f 34 19 5e bf 95 ce 41 bf 3d 69 8a 3e
       1.2527258 -0.86757207 -0.75705844 0.27033415
0001a0 29 99 5b 3e d2 ad d1 3f f4 64 18 bf 04 24 15 be
       0.21445145 1.6381171 -0.5952904 -0.1456452
0001b0 f3 ab 50 3f 19 8f aa bf 75 a0 6c be 6a bf 48 be
       0.81512374 -1.332492 -0.23108084 -0.19604269
0001c0 67 b1 a6 bf 9b 4b b7 3f fb 94 bb 3f 4a 24 2c 3e
       -1.3022889 1.4319948 1.465484 0.16810718
0001d0 36 f9 d7 be 7d b7 52 3f 2a 04 2e 3f 16 2d d4 3e
       -0.4218232 0.8231123 0.67975104 0.41440648
0001e0 18 e5 41 bf 6e 0e 2e bf 0f be c4 bf f2 32 a1 3d
       -0.75740194 -0.6799077 -1.5370501 0.07871045
0001f0 c3 dd 4d 3f 77 f4 38 3e c2 d9 72 bf 50 03 8d bf
       0.80416507 0.18062006 -0.9486352 -1.1016636
000200 06 b0 11 3e 3b 4c f4 3e 5c 16 0a bd 73 c4 d7 be
       0.14227304 0.4771441 -0.03371273 -0.42142066
000210 91 8e 8d 3f b2 2e 9c be a0 a3 e5 3e 5c ce 08 3f
       1.1059133 -0.30504376 0.44851398 0.5343988
000220 19 c8 05 40 22 e2 eb be 7a 9a 42 bf d7 b7 42 3f
       2.090338 -0.46070963 -0.7601696 0.7606177
000230 a5 3f 35 bf 1a 42 d5 bd 8b 9b ea bf 1d 29 aa bf
       -0.7080024 -0.104129985 -1.8328718 -1.3293797
000240 0f e9 43 be 35 91 82 3f f4 33 5e be c7 88 55 bf
       -0.19131874 1.0200564 -0.21699506 -0.8341183
000250 33 26 44 3e 8f ce e6 3e f8 c0 10 c0 67 c1 9b bf
       0.19155197 0.45079467 -2.2617779 -1.2168397
000260 6b 90 2f be 10 54 0a 3e ab 93 54 bf 91 e1 1b bf
       -0.17144935 0.1350863 -0.83037823 -0.6089106
000270 95 b7 5c bf fd 43 4a 3f ca db e9 3e 47 b7 2e be
       -0.86217624 0.7900999 0.45675498 -0.17062102
000280 c1 ef 81 3f 17 bb c6 3f 56 df b2 bf ee 58 c9 bd
       1.0151292 1.5525845 -1.3974407 -0.09831415
000290 84 1a 00 40 db 91 97 3e dc d9 49 bf e9 14 2a 3f
       2.0016184 0.29603466 -0.7884805 0.66438156
0002a0 9a e6 32 3f dc 01 65 3f 6b 05 05 3d 97 e5 ea 3e
       0.6988312 0.8945596 0.03247587 0.45878288
0002b0 df 28 b1 3f 3b 33 15 3f 3c e9 db 3f 9c a1 c3 bf
       1.3840598 0.58281296 1.7180552 -1.5283694
0002c0 3b cb 3e be 3c 4f 16 bf 66 5d 38 bf b7 6e 88 3e
       -0.18632214 -0.5871465 -0.72017515 0.2664697
0002d0 cd 02 a5 3f e6 42 51 bf d4 34 31 c0 74 0f dd 3e
       1.289148 -0.81742704 -2.7688494 0.43175852
0002e0 70 67 a5 bf ba 2b 56 3f a2 97 fe be 81 f3 08 bf
       -1.2922192 0.8366047 -0.49725062 -0.5349656
0002f0 dc 65 b0 3e 6a fa ba 3e 04 03 93 bd 26 59 2c bf
       0.34452713 0.36519176 -0.071783096 -0.6732353
000300 31 04 50 3e 98 dd 8e bf b0 97 b0 3f 0e ef 6b 3e
       0.20314099 -1.1161375 1.3796291 0.23040411
000310 59 82 82 bf b3 cf 17 3f 60 60 8b 3e 2b df a4 bf
       -1.0196029 0.593013 0.27221966 -1.2880605
000320 56 40 bc 3e 3d f9 94 3f 32 73 18 3d f5 93 83 3f
       0.36767834 1.1638561 0.037219234 1.0279528
000330 c5 98 c4 3e 92 cb 04 bf ab 77 34 bc d3 84 03 3f
       0.38397804 -0.51873124 -0.011014859 0.5137455
000340 0f 1e 77 3f 0f b0 44 bf 89 24 91 bf 01 85 eb bd
       0.9653024 -0.76831144 -1.1339275 -0.11499978
000350 eb d7 91 bf 29 3d 41 bf 53 d0 8a bd 1b fa 6b 3f
       -1.1394018 -0.7548395 -0.06778016 0.92178506
000360 bd 0d e0 3f 17 a3 84 bf ed 69 1f bf b5 4e 85 3f
       1.7504193 -1.0362271 -0.62271005 1.0414644
000370 f6 67 fb 3e a5 ea d1 bf ef f8 67 3f 8c f8 a6 bf
       0.49102753 -1.6399733 0.9061422 -1.30446
000380 28 f0 6d bf 38 4a 96 be 8f 78 1b be a7 cb 02 40
       -0.92944574 -0.293535 -0.15182708 2.04368
000390 20 64 16 bf 6d 60 d7 bf b6 f8 5a bf 06 74 42 3f
       -0.5874653 -1.6826302 -0.8553575 0.7595829
0003a0 ec 2f 59 3f 7d 98 5c bf 5d 6a e8 3e b6 54 54 bd
       0.8483875 -0.8617018 0.4539365 -0.0518386
0003b0 8b 46 c8 3e 50 c3 ae be 5b f3 03 bf 3e 3d 36 3f
       0.3911632 -0.34133387 -0.51543206 0.711872
0003c0 81 0c 35 be 00 a5 7b bf 3f b1 58 bf 72 f7 42 3e
       -0.17680551 -0.98298645 -0.84645456 0.19039705
0003d0 cc 49 1c 3f 6e aa 99 bd 2f 94 d1 3e 4d db c2 bd
       0.61050105 -0.0750321 0.40933368 -0.095144846
0003e0 83 7d 99 3e 2d e1 a8 bf 73 2c e5 3e de 99 92 be
       0.2997857 -1.3193718 0.44760475 -0.28633016
0003f0 9b 84 ae be 32 e5 e9 bf db f0 9a 3f ac 5d bc bf
       -0.34085545 -1.827307 1.2104753 -1.4716086

model.0.weight f4 [64, 2, 5, 5]
000000 49 a7 23 3c 7a 52 31 3e 0a 30 29 3d 03 33 a0 bd
       0.009988614 0.17316619 0.04130558 -0.0782223
000010 86 aa 6d bd 62 c6 e3 3c ea 8c f2 bd be f2 cd 3d
       -0.058023952 0.027804557 -0.118432835 0.10056065
000020 06 d4 3a 3e 2a 7a c7 bc 53 c1 d0 bd 6b f0 35 be
       0.18244943 -0.024350245 -0.10193124 -0.17767493
000030 54 9f 86 3d 4c 89 da 3d ed be 6a 3d 22 55 83 bc
       0.06573358 0.106707186 0.057310987 -0.016031805
000040 25 d2 b3 bd 1a 6e 07 be b6 30 f1 3d 5b 9f 91 3d
       -0.08780316 -0.13225594 0.11776869 0.07110473
000050 5b da 49 3d fe a1 1a bd 7f c4 18 3d 36 30 10 3d
       0.049280506 -0.037752144 0.03729677 0.035202228
000060 6f cb e5 3d dd 4c 9a 3c 64 58 1a 3d 6e 8b 1b 3d
       0.112204425 0.01883548 0.037681952 0.037974767
000070 dc eb a8 3c e0 23 fa 3b 85 63 04 bd 55 da d3 bc
       0.020620279 0.007633671 -0.03232147 -0.025860945
000080 82 9d 23 3a 90 c2 da bc 76 1d b0 3c 46 dd 63 bc
       0.0006241427 -0.026704103 0.021498423 -0.013907736
000090 0f 47 28 3b 23 6f 8a ba fe 55 c3 3b 16 d2 08 bc
       0.002567712 -0.0010561686 0.005961179 -0.00835087
0000a0 ec c6 c7 3c 70 7c 34 bc 5d eb 22 ba 4a 6c 9b bc
       0.024386846 -0.011015996 -0.00062148814 -0.018972535
0000b0 6c 3d c2 38 61 a0 44 3d 86 59 4c 3c 7f 1f 29 3d
       9.2620816e-05 0.04800451 0.012472516 0.041289803
0000c0 48 35 29 bc 64 e7 35 3c 37 ea 6a 3d 5f b3 d7 bd
       -0.010327645 0.011102531 0.05735227 -0.10532259
0000d0 2b 3b ff 3d 03 e2 3e bc 5a 28 8b 3c 64 83 d1 3d
       0.12462457 -0.011650565 0.016987015 0.10230139
0000e0 e3 07 b3 bd 86 2c 0a 3d 5a bd ec bd f9 c3 f1 3c
       -0.08741739 0.033733867 -0.115595534 0.029512392
0000f0 fa 52 71 be d1 42 07 3e d9 56 b6 bd 4e e7 fe 3d
       -0.2356681 0.13209082 -0.089032836 0.124464616
000100 89 58 8d bd 85 85 7e 3e 4c 10 91 be 7a d7 62 3e
       -0.06901652 0.24855621 -0.28332746 0.2215251
000110 bf ff 75 be 1c 69 04 3e 94 0c d2 bd f9 b3 10 3e
       -0.2402334 0.12930721 -0.10256305 0.14131154
000120 f1 df 30 be be f3 4e 3e 24 02 f1 bd 46 ae cd 3b
       -0.17272927 0.20210168 -0.117679864 0.0062768785
000130 c9 ca 0e 3d c5 1a 1e 3d 3b 74 94 bc 45 8a ac bb
       0.03486136 0.03859975 -0.01812183 -0.0052655065
000140 58 f9 9d bb b4 ad e3 3b 53 46 42 bc dc 75 87 3c
       -0.004820984 0.0069481973 -0.011857587 0.016535692
000150 4b 3f 98 bc 1d 6e 8a 3c 8e a8 12 3b b5 c5 7b 3b
       -0.018584868 0.01689821 0.0022378298 0.0038417403
000160 31 74 0b bd 29 98 ae 3c a5 41 3a bc 08 3c 3e bb
       -0.034046356 0.02131279 -0.01136819 -0.002902748
000170 4f c5 44 3c 28 9e 16 3d a4 c9 c3 bc 76 c4 53 3b
       0.012009933 0.036771923 -0.02389986 0.0032313145
000180 2b 7e 9f bc d5 94 37 3d fd 57 80 3c 9f 34 17 bb
       -0.019469341 0.04481967 0.015666956 -0.0023072136
000190 84 f4 85 bc 0a 47 7a 3e 3b 04 83 3a e0 42 37 bd
       -0.016351946 0.24441162 0.0009995768 -0.04474151
0001a0 8d bc 65 3d 2f 2d 19 3e 38 00 60 bb 84 0f b3 bd
       0.05608802 0.14958642 -0.0034179818 -0.08743194
0001b0 e1 3f 78 3d 9d bd 87 bc 43 2c 34 be 69 55 b1 be
       0.060607795 -0.016569907 -0.1759501 -0.34635475
0001c0 43 b5 e9 3c 91 ec 96 bd 22 c8 02 3e ab 58 9a 3d
       0.028528815 -0.0736934 0.12771657 0.07536443
0001d0 c0 22 3c bc 9a e4 84 3e 2a 44 5e 3e 80 98 05 be
       -0.011482894 0.2595566 0.2170569 -0.13046455
0001e0 b5 40 b6 bd 66 b1 17 3e 9f 10 b3 bb 91 a9 a3 bd
       -0.08899061 0.14813766 -0.005464628 -0.079913266
0001f0 a1 d6 7d bc 5c 59 ad bc 1b cb 64 bb 19 ce bd 3b
       -0.015493066 -0.021160774 -0.00349111 0.005792391
000200 9a 50 01 3c 31 b5 c0 3b c5 8e 92 ba dc e3 de bc
       0.007892752 0.0058809747 -0.0011181465 -0.027208261
000210 28 bd c2 3b 2b 58 22 3c 35 4a bb bc 45 73 46 bc
       0.0059429593 0.009908716 -0.022862533 -0.012112443
000220 ef 5f a1 bb 73 2d 9b bc 84 6d 43 3c 96 4f 14 3c
       -0.0049247663 -0.01894257 0.011927966 0.009052178
000230 9f 7d f6 3b 75 77 9c bb 0e 7b e9 3c d8 eb 84 3c
       0.0075222994 -0.0047749826 0.02850106 0.01622574
000240 88 5c fe b9 16 a7 af bb 3e 9c 12 bb f3 0e 7e b9
       -0.00048515596 -0.0053604944 -0.002237096 -0.00024228897
000250 dc fd b8 3c 69 0a f6 3b d0 a5 29 3d 2a 27 85 3d
       0.022581987 0.007508565 0.041417897 0.065016106
000260 5d b3 a6 bc 46 31 34 3d 84 0b 76 3d e1 9d ba 3d
       -0.020349199 0.043992303 0.060069576 0.09112144
000270 c6 69 2e 3e 8d ae e7 bc 35 81 84 3d 96 82 1d 3e
       0.17032537 -0.028281474 0.06469957 0.15381846
000280 8d d2 17 3d e3 15 ef bd 6a 33 37 bd b8 88 17 3e
       0.03706603 -0.116740964 -0.044726767 0.14798248
000290 7b cd 79 3d 6e 28 06 be 7e 07 41 bc 9d 3a c4 bd
       0.060986977 -0.1310136 -0.011781571 -0.09581492
0002a0 d0 99 fd 3d 57 ed ea 3b 7d 54 6e 3c 27 81 56 bc
       0.12382853 0.0071694064 0.014546511 -0.013092316
0002b0 f0 8c 88 bd c8 14 1a 3d d8 0e 47 bd 5d bd 90 3c
       -0.06667507 0.037617475 -0.04859814 0.01766842
0002c0 cc 48 08 bc b8 5e 89 bb b8 51 d3 3c d1 5e 6d 3b
       -0.008318137 -0.0041921996 0.025795802 0.0036219845
0002d0 f5 32 0e bd b9 9e 31 bc cd ca a5 ba d5 c2 36 b7
       -0.034716565 -0.010841065 -0.001264894 -1.0893408e-05
0002e0 eb 24 21 bb ab 55 a7 bc 39 9b 81 3c 5c ee 72 3c
       -0.0024588655 -0.020426592 0.015821086 0.014827337
0002f0 39 31 ba 3b 48 14 8e 3a 0e 62 5e bc 54 9b 0a bc
       0.0056821373 0.0010839785 -0.013573183 -0.008459885
000300 01 0d 16 3c b9 00 64 bc 7e 6b 04 3d 23 f9 7b bc
       0.009158374 -0.013916188 0.032329075 -0.015379223
000310 e1 28 82 3c eb 4e 0a 3c 65 4b 89 b6 42 8a 3b bc
       0.015888633 0.008441667 -4.0916952e-06 -0.011446537
000320 5a f4 3b 3a fb 57 39 bc 18 7b ce 3b 16 32 1b 3d
       0.0007169895 -0.01131248 0.006301295 0.037889563
000330 42 02 50 3c 5b 3c 1e 3c 48 ab 1b be ac ed 4d be
       0.012695851 0.009657945 -0.15202057 -0.20110196
000340 42 0b 47 3d 11 3e 64 bd bd 62 9a 3d 76 d4 55 3e
       0.04859472 -0.055723254 0.07538364 0.20881829
000350 81 56 b4 3c 4e d0 79 bd 50 f7 cf bd aa 35 af 3d
       0.022013905 -0.06098967 -0.10154593 0.085551575
000360 35 7e 70 bd 41 13 8a 3d a1 26 cf 3d 20 e7 11 3e
       -0.05871411 0.06741954 0.1011479 0.14248323
000370 29 85 58 bd 3d 19 7e 3d 12 0b b1 3d 0b b3 98 bd
       -0.052861366 0.062035788 0.086446896 -0.07456025
000380 6b ec dd 3c bd 79 7a 3c e0 a6 1d 3c 8a 26 b2 bc
       0.027090272 0.015287814 0.009622306 -0.021746892
000390 f5 3e aa 3c 31 42 ae bc a0 6a 35 bc 3a d7 2a bb
       0.020781973 -0.021271797 -0.011072785 -0.0026068226
0003a0 df 1e 0a 3c 9d 9a 92 3b c0 a3 fd 3a 45 0b f4 3a
       0.008430212 0.0044739977 0.001935117 0.0018619081
0003b0 63 36 30 3c 05 91 08 3d c2 e3 84 bc 6a 59 05 3d
       0.010755154 0.033341426 -0.016221885 0.032555975
0003c0 5e 55 84 ba 89 36 45 bd 34 e2 f2 3c 31 b0 06 3c
       -0.0010096242 -0.048147712 0.029648878 0.008220718
0003d0 37 0d 9c 3b 2e 41 84 bc 24 ed 54 bd 2c f9 4d 3c
       0.0047623175 -0.016144361 -0.051983967 0.012571614
0003e0 5b 46 34 bd 6b 68 a4 bc 42 e7 5e bd f7 cb 22 3e
       -0.04401241 -0.020069322 -0.054419763 0.15898119
0003f0 9c 58 66 be c2 9e 57 3e 81 f3 a7 bd 4e 64 e9 bd
       -0.2249474 0.21056655 -0.082007416 -0.11396085

model.2.weight f4 [128, 64, 5, 5]
000000 c9 c7 04 3d b9 6d 48 bd 64 42 11 3d 49 53 34 3d
       0.032417092 -0.048932765 0.035463706 0.04402474
000010 50 08 1f 3d 22 f1 e1 bc fe 8b c9 3c 6e 0f 24 3c
       0.038826287 -0.027580801 0.024602886 0.010013444
000020 1f 42 c1 3c ed 73 16 3d b6 1e 9e 3b 61 fd c5 3d
       0.0235911 0.03673165 0.0048254384 0.09667469
000030 15 6f 55 bc 01 a8 92 3d 64 80 8b 3d 69 53 3f 3d
       -0.013026972 0.071609505 0.06811598 0.046710405
000040 34 00 f2 bc 41 45 bc 3c 24 c5 d2 bc 71 de cf 3c
       -0.029541112 0.022982242 -0.02572877 0.025374623
000050 af e3 91 3d ba 2c b2 bd 77 e9 0f 3d b2 d9 43 bd
       0.07123505 -0.08699937 0.03513476 -0.047815032
000060 3b 5c 8f bd 1e 50 e3 bd f8 d2 32 bd 34 e0 09 be
       -0.070000134 -0.110992655 -0.043658227 -0.13464433
000070 1d 03 50 bd ce 30 6f bd e1 ee 4a bc 57 d4 79 ba
       -0.05078422 -0.058396153 -0.012386055 -0.00095302373
000080 80 93 34 bd 64 6b ff bd ce 0f ce bd 77 1f 9c bd
       -0.04408598 -0.12471655 -0.10061608 -0.07623189
000090 3f ea 2e bd 44 f1 eb bb 2d 2a 1f 3d 6f f5 de bd
       -0.042703863 -0.007200392 0.03885858 -0.108866565
0000a0 a5 de b0 bc 0b 6c b0 bd 39 2c 87 bd 8f 0f 9d 3d
       -0.02159054 -0.086143576 -0.06600232 0.07668983
0000b0 29 a8 0b bd fc 23 d8 bd cb 2c c2 bc 6f 32 4c bd
       -0.034095917 -0.105537385 -0.023703 -0.049852785
0000c0 fb 00 ea bb da 20 f9 bc f6 7e 9e bd c5 4e c3 3b
       -0.00714123 -0.030411173 -0.077390596 0.005960318
0000d0 0f be fa bc 62 54 f6 bd ab e2 d4 bb d6 26 46 be
       -0.030608205 -0.120278135 -0.0064967475 -0.19350752
0000e0 15 76 2d bd 51 49 8b 3c 63 f5 0d 3d a0 f7 16 3d
       -0.04234894 0.017002733 0.034657847 0.036857247
0000f0 76 5b cb bd 7c 9a a7 bd d2 db 26 3d 57 63 c1 3d
       -0.09929554 -0.081837624 0.04073698 0.09442776
000100 b5 9d a8 3d 1b b1 3b 3c 94 4f 9f bd d4 f9 0f bd
       0.08233205 0.011455799 -0.0777885 -0.035150364
000110 1f bc 7f bc 0e 36 5b 3c 4e aa a3 3d e8 4a f6 3c
       -0.015608816 0.013379587 0.079914674 0.030065015
000120 e5 04 81 bd 52 c8 96 bd 22 41 38 3d dd ef f8 bb
       -0.06299762 -0.07362427 0.04498399 -0.0075969533
000130 0c 73 4d 3d 0f f6 8e 3d 68 c0 ec 3d 39 45 b2 3d
       0.050158545 0.06980526 0.11560136 0.087046094
000140 2f a9 6f b9 66 18 ed b9 b5 ef 28 bd 00 07 e9 3c
       -0.00022855842 -0.0004522234 -0.041244227 0.02844572
000150 d4 27 33 bd ae 29 37 bd c8 c4 47 3d 54 36 9c bd
       -0.043739155 -0.044717483 0.04877165 -0.0762755
000160 dc af 98 bd 78 34 0e bd 05 53 b5 3d ef 45 04 be
       -0.074554175 -0.034718007 0.08853725 -0.12917303
000170 fe 72 47 bd 11 bc 34 be 8c 9f 85 bd 04 ef 70 3d
       -0.04869365 -0.17649867 -0.06524572 0.058821693
000180 08 01 96 3d c8 8b 0b 3d 6c 8a 66 bd d4 36 2b 3d
       0.073244154 0.034068853 -0.056284353 0.041800335
000190 2a f7 1a 3d 5a 66 e0 bc 9a 5e 9e 3d 68 29 98 3c
       0.03783337 -0.027392555 0.077328876 0.018574432
0001a0 07 98 3c 3d a4 2d b8 3d 85 e0 30 3d d3 6d 54 b9
       0.046043422 0.0899308 0.04318287 -0.00020258808
0001b0 b5 f2 19 3d d7 77 ae 3d 0e 82 dd 3c ee 20 63 bd
       0.03758498 0.085189514 0.027039554 -0.055451326
0001c0 36 53 46 bc be d9 5b bd 13 2e a2 3c 39 15 b2 3d
       -0.0121048 -0.053674452 0.01979736 0.08695454
0001d0 1f 92 00 bd ea 29 cb 3c ba 5a 42 3d a9 20 a6 3c
       -0.031389352 0.02480026 0.047449805 0.020279245
0001e0 9b 0d bc bd d9 73 0f bd 0e 6e ae 3d 51 ac c4 3d
       -0.091822825 -0.03502259 0.08517085 0.09603179
0001f0 06 16 7f 3d 17 91 18 3d 17 19 80 3d a5 6b d1 3b
       0.062276863 0.037247743 0.062547855 0.006391006
000200 16 5e bf bc d7 b5 dd bd 3b 65 3f 3d 2b a4 04 3d
       -0.023360293 -0.10825699 0.0467274 0.032383125
000210 11 c8 fe 3c 53 4f 32 be c4 43 1c be 04 1b c8 bb
       0.031101258 -0.17413072 -0.15260226 -0.006106736
000220 6b 0a f8 3c 29 10 4f 3d aa 4d 31 3e 44 89 c1 bd
       0.030278405 0.05055252 0.17314783 -0.094500095
000230 97 70 86 bd 1d 68 d9 bc 08 46 c8 3c 86 e2 05 3e
       -0.065644436 -0.026538903 0.024447456 0.13074693
000240 72 7f ba bd c4 63 a0 3d b7 7f 06 3d 2e 32 b8 3d
       -0.091063395 0.07831529 0.032836642 0.08993946
000250 bd f2 91 bd a2 b7 8c bc 82 8d d7 bd 36 a3 3f 3d
       -0.07126377 -0.017177407 -0.10525037 0.04678651
000260 65 38 9a 3d c4 fc da 3c 27 17 ac 3c 98 b3 05 3e
       0.07530288 0.026731856 0.021007134 0.13056791
000270 07 5e d1 3d 6b b2 13 3e 58 34 87 3d 06 4a c9 3d
       0.102230124 0.1442353 0.06601781 0.09828572
000280 c1 c2 c2 bc c7 1b e8 3c b4 61 c2 3b 6a 6e 9d 3d
       -0.023774507 0.028333558 0.0059320573 0.076870754
000290 e0 ba 09 3e 4b 24 12 3e 31 e5 d5 3d ae 57 8a 3d
       0.13450193 0.14271657 0.104441054 0.06755005
0002a0 7f a0 8b 3d 1a 38 7b 3c f5 0d 6a 3d a4 50 a2 3d
       0.068177216 0.0153332 0.057142217 0.07925537
0002b0 f7 6d 3b 3d 81 46 a4 3c cb 50 ef 3c 89 9f 2c 38
       0.045759168 0.02005315 0.02921333 4.1156574e-05
0002c0 43 36 b3 3d e7 28 bc 3d f8 f0 2b 3d a9 81 a8 bc
       0.08750584 0.09187489 0.041977853 -0.02056964
0002d0 a6 93 14 3d d6 a8 5a 3d 85 fc ce 3d b2 42 6c 3d
       0.03627362 0.05338367 0.10106758 0.057680793
0002e0 e0 d5 c9 bc 90 de 7b 3c 44 03 14 3c 61 da 0a bd
       -0.024638116 0.015372887 0.009033982 -0.03389967
0002f0 f1 05 17 bd 36 bc 76 3d 21 e9 88 3d 28 4f 95 3d
       -0.0368709 0.060238086 0.06685091 0.072904885
000300 e2 dc d0 bc 7a 86 b6 bc 78 76 30 bd 5f 1c 46 bd
       -0.02549595 -0.02228092 -0.04308173 -0.0483669
000310 68 2f 85 3d 7d 15 04 3d cc fc b0 bc 35 d7 b4 bd
       0.06503183 0.032247055 -0.021604918 -0.0883011
000320 40 4f cf bb 40 d1 9e bd 21 26 54 3d 80 f0 42 3d
       -0.006326586 -0.07754755 0.051794175 0.04759264
000330 fd 2c cd 3d a1 26 10 be be 2d b1 bd a8 3c d7 bd
       0.100183465 -0.14077236 -0.08651303 -0.10509616
000340 08 0a ee bd 32 7e c3 3d f1 5e 55 bd 86 6c 16 bb
       -0.11623007 0.09545554 -0.052092496 -0.0022952869
000350 c9 fd 30 3c 2e 2a 12 3d 72 53 29 bb 68 12 1d 3d
       0.010802695 0.035684757 -0.002583709 0.03834763
000360 0b 06 87 3d 69 93 15 3d 53 15 05 bd c1 92 ea bc
       0.065929495 0.036517534 -0.03249104 -0.02863443
000370 be a6 25 3d c2 f9 e9 bc 2b 68 01 3d 29 2a 11 3d
       0.04044222 -0.028561477 0.031593483 0.035440598
000380 3f fe 1a 3d 8f d6 e2 bc 3b 75 1b bd 43 fe a8 bb
       0.037840124 -0.0276902 -0.037953597 -0.0051572635
000390 c2 15 c0 bd ed 4f 08 3d b6 6b 9c bd 2c 3b 6b bd
       -0.0937915 0.03327935 -0.07637732 -0.057429478
0003a0 13 7f 92 bc 8b 8d 73 bd 9c 1f f0 3c 48 8a 94 3b
       -0.01788286 -0.059461158 0.029311948 0.004533086
0003b0 73 e8 39 3c 69 23 e5 bd 4d e3 9a 3d f5 91 10 bd
       0.011346924 -0.111883946 0.075628854 -0.035295445
0003c0 fc 4f 5e bd 80 a9 e2 bc 5e 53 4c bd c7 34 be 3c
       -0.054275498 -0.027668715 -0.049884193 0.023218526
0003d0 b6 27 8f 3c a7 32 ba 3c 71 e0 26 3d c2 eb 89 3c
       0.01747499 0.022729231 0.040741388 0.01683605
0003e0 60 56 0c 3d 74 a4 df bc 93 2e 08 3c e3 fd 14 3d
       0.03426206 -0.027300097 0.008311885 0.036374938
0003f0 2f 4a 9a bc 88 b3 99 3d 97 b6 f4 bc f0 3b 21 bd
       -0.018834202 0.07504946 -0.029872222 -0.0393638

model.3.weight f4 [128]
000000 66 67 8b 3f 41 91 97 3f d2 64 8d 3f ed d2 8a 3f
       1.089093 1.1841203 1.1046393 1.084562
000010 a6 73 8d 3f a2 47 7f 3f f8 48 7d 3f 54 e6 85 3f
       1.1050918 0.9971868 0.98939466 1.0460916
000020 dc a5 87 3f c2 3a 85 3f 03 c7 88 3f 1a 2f 88 3f
       1.0597491 1.0408556 1.0685734 1.0639374
000030 31 a1 8b 3f 25 db 81 3f bd 7f 9a 3f 28 1b 7d 3f
       1.0908567 1.0145003 1.2070233 0.9886956
000040 ca e1 8b 3f 3f a8 96 3f 95 27 8c 3f 1d c5 99 3f
       1.092828 1.1770095 1.094958 1.2013279
000050 88 8d 83 3f a6 f1 84 3f 4e 08 88 3f bc 7c 84 3f
       1.0277567 1.0386245 1.0627534 1.0350566
000060 4f 06 8b 3f 07 10 8e 3f b1 0d 87 3f 17 f2 7a 3f
       1.08613 1.1098641 1.0551053 0.9802565
000070 2b 6e 93 3f 4e 77 9e 3f 01 67 91 3f 1c 01 8b 3f
       1.1517996 1.2380159 1.1359559 1.0859714
000080 8c c9 82 3f e0 a5 88 3f 7d f9 98 3f dd 55 83 3f
       1.0217757 1.0675621 1.1951138 1.0260578
000090 ec 35 88 3f cb f6 8c 3f b1 8b 92 3f a7 73 88 3f
       1.0641456 1.1012815 1.144888 1.0660294
0000a0 1b 7e 81 3f 28 bc 85 3f 76 dd 84 3f d4 b4 8b 3f
       1.0116609 1.0448046 1.0380085 1.0914559
0000b0 77 b7 79 3f 2d 72 81 3f 5d 3a 8f 3f f9 7b 94 3f
       0.9754557 1.0112969 1.1189686 1.1600333
0000c0 14 32 8e 3f dc e0 95 3f d1 52 8a 3f ae c1 93 3f
       1.1109033 1.1709247 1.0806524 1.1543481
0000d0 76 84 86 3f d1 18 93 3f 4b 99 84 3f 81 c2 84 3f
       1.0509174 1.1491948 1.0359281 1.0371858
0000e0 05 7c 8c 3f 8d 7d 86 3f 1e 0c 8a 3f a3 3f 96 3f
       1.0975348 1.0507065 1.0784948 1.173817
0000f0 8a fc 8d 3f b0 4d 85 3f b6 1f 91 3f f2 bd 95 3f
       1.1092694 1.0414333 1.1337802 1.1698592
000100 fb cc 8f 3f 28 da 86 3f eb 79 8a 3f 33 37 87 3f
       1.123443 1.0535326 1.0818456 1.056372
000110 92 17 8d 3f bb 69 97 3f e3 9e 8c 3f 4d f3 8f 3f
       1.1022818 1.1829141 1.0985988 1.1246125
000120 10 ea 7e 3f 97 5a 94 3f ee a6 84 3f 2c 1d 95 3f
       0.995759 1.1590146 1.0363443 1.1649528
000130 1b dc 9e 3f ea dc 95 3f eb 9c a3 3f 4d 23 85 3f
       1.2410921 1.1708043 1.2782263 1.0401398
000140 99 c4 99 3f 79 db 80 3f 1f 9d 89 3f 28 51 86 3f
       1.2013122 1.0066978 1.0751075 1.0493517
000150 1b 50 94 3f 5f 66 9c 3f c5 cf 9a 3f b4 be 88 3f
       1.1586946 1.2218741 1.2094656 1.0683198
000160 7d 50 8d 3f 85 8a 82 3f 59 fe 80 3f 43 b5 8e 3f
       1.1040188 1.0198523 1.0077621 1.1149067
000170 60 b8 88 3f 1b af 93 3f 80 a7 89 3f eb 39 93 3f
       1.0681267 1.1537813 1.0754242 1.150205
000180 5e 5b 89 3f 76 b0 95 3f f2 41 7f 3f 07 9b 8e 3f
       1.0731008 1.1694477 0.9971 1.114106
000190 c5 5c 87 3f 27 69 80 3f 7b f5 8c 3f 3b 15 85 3f
       1.0575186 1.003209 1.1012415 1.0397104
0001a0 dd 9a 99 3f 5d 0b 7e 3f 01 7d 82 3f 29 b7 89 3f
       1.2000386 0.9923609 1.0194398 1.0759021
0001b0 e8 ba 89 3f 8a 70 92 3f ff 94 94 3f 56 61 80 3f
       1.0760164 1.1440594 1.160797 1.0029705
0001c0 a2 7b 85 3f df f2 8d 3f 7b a8 89 3f 54 16 8a 3f
       1.0428355 1.1089743 1.0754541 1.0788064
0001d0 df 57 84 3f 8e e8 93 3f 0b c5 8e 3f 7c 8a 89 3f
       1.0339316 1.1555345 1.1153883 1.0745387
0001e0 22 bb 7f 3f fc 1d 7e 3f be a4 8c 3f 46 28 8f 3f
       0.99894917 0.992645 1.0987775 1.1184165
0001f0 d2 4e 83 3f 48 d1 89 3f e1 13 86 3f bd 51 92 3f
       1.0258429 1.0766993 1.0474817 1.1431195

model.3.bias f4 [128]
000000 a2 2a 76 bd 90 e9 08 bd e6 7b 9b bd 55 da 00 be
       -0.06009925 -0.033425868 -0.07591991 -0.12583287
000010 7d f1 62 bd 0b 3c 85 be ad da 93 be c0 0e d9 bd
       -0.055406082 -0.26022372 -0.28877774 -0.105985165
000020 6c 97 cd bd d1 38 bf bd ca 45 0c be df d3 8c bd
       -0.10038647 -0.09337009 -0.13698497 -0.06876349
000030 d1 c8 49 bd 04 00 74 be f7 fd 27 3d 02 d9 23 be
       -0.04926378 -0.23828131 0.041013684 -0.1600075
000040 54 df 82 bd ac a3 80 bd 71 0b bd be 70 93 99 3c
       -0.06390253 -0.06281218 -0.36922792 0.018747061
000050 bc b3 ef bd 5b aa d0 bd f4 fa a2 be 38 ac 1a be
       -0.117042035 -0.10188743 -0.31832087 -0.15104759
000060 f8 cb b8 bd 4c 0b e7 bd 90 b6 e5 bd 91 5f 53 be
       -0.09023279 -0.112814516 -0.11216462 -0.20641924
000070 16 2f d0 bc b6 50 0d be e6 f5 9f bd dd cc 9b bd
       -0.025413077 -0.1380032 -0.07810573 -0.07607434
000080 2c ae 55 be 85 fb ff bd 3a f5 ff bc db 13 9d bd
       -0.20867223 -0.124991454 -0.031244863 -0.07669803
000090 e0 d9 f4 bd 0e 88 8d bd d6 a0 48 bd 25 4d 4c be
       -0.11955619 -0.06910716 -0.04898151 -0.19951303
0000a0 48 38 89 be 2d 58 24 be e5 23 bb bd 4b 86 8e bd
       -0.26800752 -0.16049261 -0.09137706 -0.06959208
0000b0 50 a2 29 be 23 86 ef bd b2 02 7f bd c8 49 68 bd
       -0.16565824 -0.116955064 -0.06225843 -0.05671099
0000c0 e6 7d 64 bd 1a 56 2f bd 38 64 b7 bd f6 7c b0 bd
       -0.05578413 -0.042806722 -0.08954662 -0.086175844
0000d0 64 7c 84 be 49 a9 31 be 35 3d 52 be dc 87 93 bd
       -0.25876153 -0.17349733 -0.20531161 -0.072036475
0000e0 a2 a8 34 be b8 ff f8 bd eb cf a4 bd 63 15 a9 bc
       -0.17642453 -0.121581495 -0.0804747 -0.02064008
0000f0 04 7c 75 bd 3c ed 9e be 67 06 84 bd 0a cf 35 bd
       -0.059932724 -0.3104037 -0.06446534 -0.0443869
000100 73 89 88 bd 87 d5 73 be a9 0a 94 bd b1 a3 ac bd
       -0.06666841 -0.23811923 -0.07228596 -0.08429659
000110 75 9e b5 bd a1 a9 20 bc 6d 30 c8 be b8 ed 82 bd
       -0.08868114 -0.009806068 -0.39099446 -0.063929975
000120 3c aa f6 bd c0 36 8f bd a3 ba ad be 59 82 b8 bd
       -0.120441884 -0.069928646 -0.33931455 -0.09009237
000130 78 55 c8 3d 13 e2 5a bd 7b 92 11 3d 76 01 88 bd
       0.09781927 -0.053438257 0.035540085 -0.06640904
000140 67 d6 bb 3c 8d 31 0e be f1 8b d7 bd 71 3a 86 bd
       0.022929383 -0.1388609 -0.105247386 -0.065541156
000150 10 fb 0b bd 35 6d 69 bd e7 c5 a9 bd c8 ba da bd
       -0.03417498 -0.056988914 -0.082897 -0.10680157
000160 4d 61 35 be 0d 50 d3 bd 9e 3c bc be 4c b0 68 bd
       -0.17712899 -0.10318003 -0.36764997 -0.056808755
000170 49 3b a0 bd d9 01 11 bd 24 03 95 bd ad 97 13 bd
       -0.07823808 -0.035402153 -0.0727599 -0.03603332
000180 1b 0b 16 be d0 2f 08 bd fa 6c c4 be 11 b7 a5 bd
       -0.14652674 -0.033248723 -0.38364393 -0.08091558
000190 6a 25 10 be 35 d0 0f be 76 d8 42 bd 85 c0 c0 bd
       -0.14076772 -0.14044268 -0.047569714 -0.0941172
0001a0 3c 61 e8 3c ac 93 4b be 5d 81 20 be 69 db b0 bd
       0.028366677 -0.19880551 -0.15674348 -0.08635599
0001b0 07 c3 ca bd 20 fe 42 bd 1e 14 2c bd 0c 5d e5 bd
       -0.0990048 -0.047605634 -0.042011373 -0.11199388
0001c0 38 9c 2d be e2 1f 9c bd d7 c2 67 bd 94 c1 b5 bd
       -0.16954124 -0.07623269 -0.056582298 -0.08874813
0001d0 81 2c 99 bd 82 9e 58 bd 83 e4 ae bd 2b c8 48 bd
       -0.074791916 -0.05288554 -0.08539679 -0.04901902
0001e0 54 86 a6 be f1 9a 2f be ec 39 d4 bd 0f aa 41 bd
       -0.3252436 -0.17148949 -0.1036261 -0.04728132
0001f0 db 71 0e be a0 b3 5b bd 8d c6 cc bd a2 48 99 bd
       -0.1391062 -0.0536381 -0.09998808 -0.07484557

model.3.running_mean f4 [128]
000000 4c 7f 94 bd 35 64 31 bc 05 ea 35 bf 67 2f b7 3e
       -0.072508425 -0.010827114 -0.7106021 0.35778353
000010 20 cc ae 3f d6 eb 98 bf cf 9d 48 3d 1d af 63 be
       1.3656044 -1.1946971 0.048978623 -0.22234769
000020 33 c0 1a bf a0 7b ed bf 98 79 bc 3d 4f 26 ae 3e
       -0.6044952 -1.8553352 0.0920288 0.34013602
000030 3e fb 71 be c1 b5 52 3d 42 d9 17 c0 5a e9 07 3d
       -0.23630998 0.051442865 -2.3726354 0.033181526
000040 8f b2 96 bf 08 c5 b3 be c0 ca 96 3f d3 53 20 c0
       -1.1773242 -0.3511126 1.1780624 -2.5051162
000050 ef f2 74 be b4 40 46 3e 9d c0 1f bf fd ec c1 be
       -0.23920797 0.1936062 -0.6240328 -0.3787612
000060 a0 4a ad 3d d2 ce 2f bf d0 cc c7 be e7 78 1c bf
       0.08461499 -0.6867496 -0.39023447 -0.6112198
000070 cb 44 93 bf aa a4 2a 3f 72 54 7e be 71 c4 23 bf
       -1.1505369 0.6665751 -0.24836901 -0.6397162
000080 09 a4 89 be 30 db 4a bf 4e 68 65 be 27 d6 1a 3e
       -0.2688296 -0.79240704 -0.2240307 0.15120755
000090 9c 99 44 3f 89 3d 72 bd ba 74 e3 be 6f ac 8e 3e
       0.7679689 -0.059140716 -0.44424993 0.2786593
0000a0 57 93 1d be 46 60 b8 3e 38 ea 17 3f ec 19 80 3f
       -0.15388237 0.3601095 0.59341764 1.0007911
0000b0 a4 67 43 3e 25 cd 77 be dc 53 f9 3e 20 25 c7 bf
       0.19082505 -0.2419935 0.48696792 -1.5558205
0000c0 5c c6 e9 bf a2 2b b9 bf 31 84 cd 3e 59 6a 6c 3d
       -1.826366 -1.4466441 0.40139917 0.05771861
0000d0 27 e5 7d 3d b1 49 16 40 8a 11 14 bf c7 9e 96 be
       0.061986115 2.3482478 -0.5783926 -0.29418012
0000e0 04 6e 42 3f b2 4c 48 bf d0 cd 49 bf 2e 44 2f 3e
       0.7594912 -0.7824203 -0.7882967 0.17115852
0000f0 a3 9a f0 3e 9d 59 29 3c ca 72 41 bf f0 58 26 be
       0.46992978 0.010336307 -0.7556578 -0.16244864
000100 0e 9f 79 bf 92 96 7d 3f 4f 35 8e bc 8f dd 84 be
       -0.97508323 0.9905788 -0.017359404 -0.25950286
000110 29 c5 4a 3f f4 bf fa bf 03 e7 91 bd 5a d2 9e bd
       0.7920709 -1.958983 -0.0712414 -0.07754965
000120 79 01 8b 3e b1 6a 1e bf c5 9f 1a be 5f 27 4b bf
       0.2714956 -0.6188155 -0.1510001 -0.7935695
000130 b3 16 0f c0 f7 5d e8 bf c8 bb 0a c0 69 6f d9 bd
       -2.2357605 -1.8153676 -2.1677113 -0.10616953
000140 22 d0 34 bf 1e f5 2d bf 71 a6 75 bf 35 34 7e bf
       -0.70630085 -0.67952144 -0.95957094 -0.9929841
000150 06 ae aa bf 0b 2c 98 bf 93 45 fd bd 66 e0 d6 3e
       -1.3334358 -1.1888441 -0.12366786 0.41968077
000160 1a 6d 98 3f 58 f9 0c 3f f1 1c 42 bf 2a fa 6a be
       1.1908295 0.5506797 -0.7582541 -0.22946993
000170 88 02 9b be 68 0b 5c 3f 1b ca d6 be 87 67 2d be
       -0.3027537 0.85954905 -0.4195107 -0.16934024
000180 3a 6c a0 3d eb ce e2 bf 04 8e 5d 3e cf c0 5a be
       0.078331426 -1.7719396 0.21636206 -0.21362613
000190 28 dc 82 3f 1d 8c 15 bf 88 6b 03 bc 13 4e 9d 3c
       1.0223436 -0.5841692 -0.008021243 0.019202268
0001a0 fd 22 0c c0 72 18 36 bf e3 53 13 3e 26 e8 2c be
       -2.1896355 -0.7113105 0.14387469 -0.16885433
0001b0 c7 82 c3 be 74 db fb 3e ac 4f 8b bf e8 9c 51 bf
       -0.38185713 0.49190867 -1.0883689 -0.81880045
0001c0 5c c4 6e be ae ee cb be 66 c7 c6 3e 70 2c 14 be
       -0.23317093 -0.39830536 0.38824004 -0.14470077
0001d0 67 d0 b5 3f ad 9c d5 bd f9 1f 7a 3f 67 8d 02 3f
       1.4204224 -0.10430274 0.97705036 0.5099701
0001e0 73 d7 ce bc 6d 05 23 bf c7 e4 02 bf 3f 68 46 be
       -0.025249219 -0.63680154 -0.51130337 -0.19375704
0001f0 55 dd d5 bf da 1d 04 3f ee b8 68 be b7 3f 7e bf
       -1.670817 0.5160805 -0.22726795 -0.9931597

model.3.running_var f4 [128]
000000 60 09 99 3d d9 82 c8 3d 4a eb e6 3d ce 3f 11 3f
       0.07472491 0.09790582 0.112753466 0.56737983
000010 56 1d ba 3d 34 5a 9c 3e 31 4a 9d 3e 15 f2 6d 3e
       0.09087627 0.3053757 0.30720666 0.23236878
000020 0f 81 a1 3e e1 7b 29 3e be 68 81 3e 23 e4 d7 3d
       0.31543776 0.16551162 0.25275224 0.105415605
000030 5f 9c 09 3e 8f be 86 3e 57 34 67 3d 60 f9 9b 3e
       0.13438557 0.2631726 0.0564464 0.30463696
000040 df b3 22 3e 92 f4 77 3d bd 7f c9 3e 69 70 e2 3c
       0.15888928 0.060535975 0.3935527 0.027641492
000050 fd 80 bb 3e d0 3c a4 3e 7f aa 8c 3e ac 1a 8a 3e
       0.36621848 0.32077646 0.27473828 0.26973474
000060 c5 f6 06 3e 86 84 0a 3e f6 c6 5b 3e f3 c0 a2 3e
       0.13180073 0.13527116 0.21462616 0.31787834
000070 9a 2b b9 3d 31 da b9 3e 28 af b8 3d a3 ea f4 3d
       0.090415195 0.3629928 0.090177834 0.11958816
000080 c3 5b d3 3e 6f 45 ed 3e bf 29 b2 3d 9e 8b c2 3e
       0.41280946 0.46342036 0.08699369 0.37997144
000090 1e 76 d3 3e 36 5a 4b 3f 02 d5 c8 3d 66 e2 e1 3e
       0.41301054 0.79434526 0.09806253 0.4411804
0000a0 9f 03 0a 3f f2 0a 06 3f 1b 75 aa 3e 41 ec 0f 3e
       0.53911775 0.5236045 0.3329247 0.14054967
0000b0 d4 11 fa 3e 0a 24 bb 3e 53 2a 1c 3e 0d db b6 3d
       0.48841727 0.36550933 0.1525052 0.08928499
0000c0 b6 3b 97 3d 67 7d c4 3d 17 50 b1 3e 74 8f 2d 3d
       0.07384436 0.09594231 0.34631416 0.042373136
0000d0 aa 22 e1 3e 5a a8 85 3e 86 98 c4 3e e8 21 02 3e
       0.4397176 0.26105005 0.38397616 0.12708247
0000e0 73 64 04 3f a8 ab df 3e f2 13 e8 3d be ab 6c 3d
       0.51715773 0.4368565 0.11331929 0.057780974
0000f0 10 9d 9e 3d 96 f2 d9 3e 2a ca 80 3d 3e 08 55 3d
       0.07744801 0.4256789 0.0628856 0.052009813
000100 2a 1a d7 3d 28 e3 52 3e 46 6e 5e 3e 3a f9 8a 3e
       0.10503037 0.20594466 0.21721753 0.2714327
000110 de 09 06 3e ac d4 d1 3d d6 39 d9 3e 11 bd 02 3e
       0.13089702 0.10245642 0.42426938 0.12767436
000120 94 49 b1 3e bd 70 84 3d 32 de a1 3e 53 8b 90 3d
       0.34626448 0.064668156 0.31614834 0.07057824
000130 5b cc 75 3d e2 4a 81 3d ad 0d 34 3d 72 f4 8c 3e
       0.06000934 0.06313111 0.043958355 0.27530247
000140 0f 08 d8 3d 3b 88 6c 3e 72 5c e0 3e 75 28 29 3e
       0.10548412 0.23098843 0.4382053 0.1651934
000150 14 cd 0e 3e 57 c9 55 3d 97 68 80 3d 4f d6 3f 3e
       0.13945419 0.052193966 0.06269949 0.18734096
000160 00 f6 4b 3e ae b4 93 3e 8f df ac 3e 2a b9 65 3d
       0.1991806 0.28848785 0.33764312 0.05608479
000170 20 e1 6e 3e 56 8c b4 3d 08 2d 4e 3e e7 55 8d 3d
       0.23328066 0.088158295 0.20134366 0.0690115
000180 aa ba d6 3e 54 23 ab 3d 9e 18 ce 3e 0c 1f be 3d
       0.41939288 0.08356348 0.40253156 0.092832655
000190 5b 66 8f 3e 2a 5c 80 3e 07 da bc 3d 6a f2 d7 3e
       0.2800778 0.25070316 0.09221273 0.42177135
0001a0 21 48 9a 3d 5b 41 ce 3e 0f 00 86 3e 20 7b 11 3e
       0.07533289 0.40284237 0.2617192 0.14207125
0001b0 10 35 a0 3e 36 1b 6d 3d ff 45 d4 3d bc 49 a2 3e
       0.31290483 0.05788728 0.10364913 0.3169688
0001c0 91 77 4d 3e b8 58 f0 3d 19 25 8e 3d 12 93 29 3e
       0.20065142 0.11735672 0.069406696 0.16560009
0001d0 f9 f8 05 3f d9 5e af 3d 4b 68 19 3e b3 9b 07 3e
       0.5233303 0.08563013 0.14981191 0.13242988
0001e0 85 97 d6 3e b4 ab c7 3e e2 c6 f2 3d 06 ad 02 3e
       0.41912475 0.38998187 0.1185434 0.12761316
0001f0 5a 9d b0 3e fa 35 0e 3e dd a8 7f 3e a5 01 b4 3d
       0.3449505 0.13887778 0.2496676 0.08789376

model.5.weight f4 [1, 128, 7, 7]
000000 ce 64 7c 3d de 0a bc bd b0 dd 78 bd d7 09 ff 3c
       0.061619572 -0.0918176 -0.060758293 0.031132622
000010 fb f1 2d 3d 36 6a 99 bd d8 1b f0 bd 05 84 bb 3c
       0.0424671 -0.07490961 -0.11724061 0.0228901
000020 43 db ef bc 9e f8 54 bd 3e 58 22 bd bc a4 c0 3c
       -0.029279357 -0.051994912 -0.039634936 0.023516051
000030 66 38 89 bc bb e8 01 be 24 2a 90 bd 5c b7 ec bc
       -0.016750526 -0.12686436 -0.07039288 -0.028896026
000040 6f 66 cc 3c 9a 57 b5 bc b9 ad 06 bd f7 ca d0 3d
       0.024951188 -0.022136498 -0.03288052 0.101949625
000050 5a ef 39 3e 0c 64 d7 bd 1d 5e ea bd ee 3d 07 3d
       0.18157712 -0.10517129 -0.11443732 0.033018045
000060 c6 59 ec bd 9f a4 86 bd 7c b4 a3 bd af 77 c3 bc
       -0.115405604 -0.06574368 -0.07993409 -0.02386078
000070 7a ec 82 bd c4 43 44 bd 04 08 3b 3e e6 9d 36 bc
       -0.063927606 -0.04791619 0.18264776 -0.011146044
000080 3c 74 da 3c 16 e5 72 3d c9 4f 2e 3c 7e 8b ab bd
       0.026666753 0.059300505 0.010639139 -0.083762154
000090 c8 0e c5 bd d0 1f 10 3e 0b 0f ac 3c 50 6d 3a 3d
       -0.0962196 0.14074636 0.021003267 0.045514405
0000a0 98 a2 fa bb ed e6 9b bd 47 0e a4 bd 45 86 83 bd
       -0.007648777 -0.07612405 -0.08010536 -0.06422094
0000b0 25 65 b5 bd 3c 87 da 3d 46 f2 94 3d 14 a1 3c bd
       -0.088571824 0.10670325 0.072727725 -0.046052054
0000c0 63 3a 97 bd bf b3 f5 be bd c1 0f 3e 59 f8 08 3e
       -0.07384183 -0.47988698 0.14038749 0.13375987
0000d0 a6 21 04 3e 50 7e ea 3d 21 94 e4 3d 76 07 45 3e
       0.12903461 0.114498734 0.11161066 0.19241127
0000e0 44 87 32 3e 24 e0 c3 3d a5 77 e3 3d b7 f9 02 3e
       0.17434412 0.09564236 0.11106805 0.12790571
0000f0 0c ae af 3d ec a2 9b 3d 57 0c b0 3d 98 af e6 3d
       0.08578119 0.07599434 0.08596104 0.112639606
000100 4c d2 44 bd bc ad d4 3a 3a dd b0 bd 2e 7b d3 bd
       -0.048052117 0.0016226093 -0.086359456 -0.10326229
000110 b9 4e 0d be dc 77 94 bd b1 82 9e 3d c5 5d 09 be
       -0.13799562 -0.07249424 0.07739771 -0.13414676
000120 32 ee 9b bd 2a 62 9b bd 4c a0 c1 bd ab b1 af bd
       -0.076137915 -0.07587083 -0.09454402 -0.08578809
000130 c3 dd a2 bc df 4f ee 3d 88 87 48 bc 8e 71 29 bd
       -0.019881135 0.11636328 -0.012239344 -0.04136806
000140 13 49 00 be 97 34 18 be 99 02 cc bd 14 29 ad bd
       -0.12527876 -0.14863811 -0.09961433 -0.08455101
000150 fa 39 b0 3d 48 6d c2 bc 08 f3 88 bd 18 b6 2a bc
       0.08604808 -0.02373375 -0.066869795 -0.010419391
000160 64 ed 41 bc b9 ba b5 3b 37 76 60 bc f9 95 68 3e
       -0.0118363835 0.0055459407 -0.01370006 0.2271346
000170 5f 54 da bd aa d3 b1 3a 93 07 9e 3c 9a a5 21 3c
       -0.10660624 0.0013567109 0.019290721 0.009866143
000180 4c c9 86 bb 04 1c 22 3e dd 5e 0a be 8a a5 4f be
       -0.004113352 0.15831 -0.1351275 -0.20277992
000190 7b a7 e0 bd 79 28 8c 3e 44 b2 d6 3d f1 d1 37 3e
       -0.10969444 0.27374628 0.1048322 0.1795118
0001a0 f4 e4 61 3e 5c 27 f9 bc b6 5c 86 bc a3 e9 af 3c
       0.22059995 -0.030414276 -0.01640163 0.021473711
0001b0 81 dc 36 bd 19 04 ce bd 8a f9 9b bd 17 e1 26 bd
       -0.044643883 -0.10059375 -0.07615955 -0.040742006
0001c0 b9 84 c8 bd e2 99 dc 3c 1c de da 3c 88 5f 6e bc
       -0.0979094 0.026928846 0.026717238 -0.014549144
0001d0 5c 4b 10 3d e2 02 0f 3c 2a ac dc bd 4d cf b2 bd
       0.03522812 0.008728715 -0.10775025 -0.08730946
0001e0 1b 32 09 3e dc f1 da 3d dd fc 23 3d db 41 d0 3c
       0.1339802 0.10690662 0.04003607 0.025422027
0001f0 2f 73 dc 3d d8 02 f3 bd db 4e 9f bd ae 22 55 3d
       0.10764157 -0.11865777 -0.07778712 0.052035026
000200 3c 3e b7 3d c1 a6 b0 3d 7d e5 ea bb 7a 65 47 3d
       0.08947417 0.08625556 -0.0071684704 0.04868076
000210 68 cf c2 bc 32 58 9d bd 28 55 e7 3d 57 64 e7 3d
       -0.02378054 -0.076828375 0.11295539 0.11298435
000220 55 87 55 3c 14 65 7e 3d 21 9b b3 3b a6 2b 0a 3c
       0.013032754 0.062108114 0.0054811393 0.008433258
000230 63 b9 8b bd a4 47 86 bd de 92 da bd 13 65 f9 bd
       -0.06822469 -0.06556633 -0.10672544 -0.121774815
000240 27 ec 4c bd 02 e7 07 bd 5f 37 03 be 78 d2 63 bd
       -0.0500299 -0.03317929 -0.12814091 -0.05562064
000250 f9 3e 5c 3d 16 df a0 3d 9e 9f 38 3d 1c d7 9a 3d
       0.053770993 0.0785505 0.045074098 0.0756056
000260 77 3a a3 3d bc 7c b0 bd de 99 ae 3d c8 96 cb 3c
       0.07970136 -0.08617541 0.085254416 0.024852172
000270 d3 ea e7 3c 8b fc 36 3d 98 f8 ee 3c 1d 35 c8 3c
       0.028310215 0.044674437 0.029171273 0.024439389
000280 c3 b5 d7 bd ee 4f c9 3b 85 b4 fd 3c 0b d8 05 3d
       -0.10532715 0.0061435616 0.030969867 0.032676738
000290 c0 81 5b 3d e4 31 6d be 76 78 16 3d a5 24 d5 bc
       0.053590536 -0.23163563 0.036735974 -0.02601845
0002a0 06 28 4c bd 50 47 ab 3c a4 fb ef 3c 61 83 67 3d
       -0.049842857 0.020908028 0.029294796 0.056521777
0002b0 10 1c 37 be 77 86 58 bd 0f 96 d6 bc 33 d4 6b bd
       -0.17881799 -0.05286261 -0.0261946 -0.057575416
0002c0 f9 13 08 3d e0 6d 0d 3d 1c d1 f0 bc 78 31 2a be
       0.033222172 0.034528613 -0.029396586 -0.16620433
0002d0 76 da 07 be c8 12 99 be 77 86 f4 3d 2e 37 93 3d
       -0.1326693 -0.2989714 0.1193971 0.07188259
0002e0 cf 7f 65 3c 36 19 1a be 54 1b 55 bc 01 36 2e be
       0.014007523 -0.1504868 -0.013007004 -0.17012788
0002f0 13 3b 95 be a4 c3 3f bc ce f2 05 3d 24 83 2b bd
       -0.29146633 -0.011704359 0.03270226 -0.041873112
000300 b9 5c c3 bd 20 c5 0a be 3e 9e 46 be 49 b2 51 3a
       -0.0953917 -0.1355176 -0.19396302 0.0007999284
000310 e4 12 2c be d8 3a d4 bd 64 f8 35 3c 78 63 98 bd
       -0.16804081 -0.10362786 0.011106584 -0.07440847
000320 e1 88 3b bb 8a 9b e3 3d fb 3c 3b 3e 6c 28 17 3e
       -0.0028615522 0.11113651 0.18284981 0.14761513
000330 8c 67 3c 3d 36 e7 59 3d 9f 12 a6 3d 0c bd 97 3d
       0.045997187 0.053199016 0.081090204 0.07409105
000340 47 ec 48 3d 6a 97 0d 3e 2e f9 a4 3d e7 c8 62 be
       0.049053457 0.13827291 0.0805534 -0.2214695
000350 b0 ed 62 3d 60 e6 f6 3c ab 5d d1 bd 00 05 5d bd
       0.055402458 0.030139148 -0.10222944 -0.053959846
000360 67 96 bb 3d 05 c4 a3 3d f2 4c 56 bd 56 0c a7 bd
       0.09159546 0.07996372 -0.052319475 -0.0815665
000370 52 88 8b bd c5 44 c8 bd 25 c1 34 bd a4 16 54 3d
       -0.068131104 -0.09778742 -0.04412951 0.051779404
000380 64 85 9d 3d 59 c4 ed bd f1 ad 86 bc 33 15 1b bc
       0.07691458 -0.11609716 -0.016440364 -0.0094655035
000390 a8 6f 81 bb 65 58 d0 3b ff 63 68 3d 97 d3 d2 3d
       -0.003950078 0.0063581937 0.05673599 0.10294264
0003a0 41 ef e6 bd 8b 56 1e bd 1b 60 42 3d 52 2a 0b 3c
       -0.11276103 -0.038656753 0.047454935 0.008493977
0003b0 52 20 f3 3b 5e eb 03 3e d7 c4 1a 3e f5 5b 2d be
       0.0074196244 0.12882754 0.15114151 -0.1692961
0003c0 c0 59 40 be 07 d7 c2 bd ea 39 2f be 27 29 20 3d
       -0.18784237 -0.095136695 -0.17111936 0.039101746
0003d0 8f ce 1a be be 6a 39 3d cd e3 8a 3c a7 2a 83 bc
       -0.15117858 0.045267813 0.016954327 -0.01601155
0003e0 52 21 02 bd 49 eb ae 3d 2e a5 0d 3d eb f6 63 3d
       -0.031770058 0.08540971 0.034581356 0.0556554
0003f0 86 78 9a 3c 11 f7 6c bc 8b 47 92 3d fc 9a 11 be
       0.018856298 -0.014463202 0.07142552 -0.14219278
